final/22119129.pt (torch, 810586 bytes, 28 tensors)

features.0.weight f4 [32, 3, 3, 3]
-0.048926845 -0.13515897 -0.092144 0.19767897 0.07701414 -0.10131275 0.12436567 0.0064656218
0.21197984 0.1064524 -0.13996966 -0.13308305 0.05838937 -0.13688856 0.16268778 0.22911955
-0.1778605 0.14652228 -0.08768339 0.07903214 -0.12609833 0.030030193 0.13237952 -0.08377467
0.026042065 -0.101092495 0.004066215 0.0064815283 -0.042762283 0.22288434 0.17770547 -0.12698098
0.060692918 0.07342325 -0.08207102 -0.0055633015 0.13026752 0.1268429 0.18795392 -0.19617476
-0.011116592 -0.031046135 -0.16170304 -0.22076027 0.015891422 0.048135024 0.096030705 -0.088511795
0.14782329 0.12961805 -0.11036199 -0.19968791 -0.07397043 -0.1033475 0.24342456 -0.12576726
0.06144272 0.30988592 0.095073886 -0.054003514 0.15426013 0.097625725 -0.18319742 0.25121737
0.1752292 -0.08030722 0.20047012 0.062254995 -0.08201179 0.10807532 -0.058645654 -0.14159508
0.2100701 -0.06509787 -0.09114449 0.061472364 -0.031095378 -0.12811972 0.10293068 -0.15135624
-0.05052279 0.011119692 0.042334534 0.2256501 0.04125886 0.103382036 0.2521521 -0.120631285
-0.14372513 -0.015471238 0.09449833 -0.13321312 -0.0546608 0.00620033 0.07254747 0.22380704
-0.18579112 -0.1433477 0.07369701 -0.119815364 -0.0020262916 0.12757283 -0.03463271 0.00738704
0.0448916 -0.06964198 -0.025135469 0.0946697 -0.10970623 -0.051318716 -0.22494884 0.072716236
0.19556671 -0.048511088 0.031482566 0.3228557 -0.02371553 -0.10326429 0.16255501 0.13583137
0.09269721 -0.044262517 -0.06268989 0.16424872 0.23055063 0.18422689 -0.17111208 0.106482826
-0.09730896 0.09382393 -0.005435044 0.042997938 -0.00093655224 0.3604037 0.007777552 -0.06346288
-0.16518712 0.09550658 0.040926438 0.08813569 -0.1106756 0.011701085 0.028828597 -0.112046756
-0.19796716 0.05971106 0.044075254 -0.19463862 0.18720281 -0.10454367 -0.05271979 -0.064157814
-0.096251585 0.036738634 0.09102194 0.16838235 -0.1371284 0.1988328 -0.06264528 0.087604925
0.05367399 0.15439428 0.0021217586 0.16048618 -0.027103918 0.0093831215 0.12151866 0.13190521
-0.09542845 0.21382914 -0.16553412 0.03033318 -0.1253783 -0.14355034 0.18244915 -0.12065223
0.024588948 -0.17560685 0.13374336 -0.15804191 0.00084239774 0.17149253 -0.06036291 -0.13276795
-0.15747306 0.0018842056 -0.093050554 0.18696007 -0.028362906 -0.15459645 -0.064323045 0.117707975
-0.032923073 0.14133656 -0.06860509 0.17120853 0.10167267 0.043951653 0.12388483 -0.01792909
-0.053273 0.2307457 0.15096037 0.20697477 -0.017099643 -0.0066581336 0.060922343 0.02260816
0.08523787 -0.072830684 -0.10801191 0.12793648 -0.13992254 0.030169114 0.15315084 0.13590536
0.090279475 -0.072081715 -0.15983035 0.1633853 0.10939417 -0.096847236 0.024779884 0.12144695
-0.016544813 0.090670586 -0.082539305 0.1505729 -0.028458742 -0.09214494 0.053690262 0.11248503
0.0070077307 -0.12696415 0.15907843 -0.18728004 0.0034582824 0.044131972 -0.23396894 0.10690135
-0.12481826 -0.12828635 0.050462168 0.001751586 0.0524772 -0.10551909 -0.197476 0.0396995
-0.08884286 -0.0050202706 0.17800455 -0.1050475 -0.038667895 -0.06659781 -0.041836247 -0.06432432
00000000: 8467 48bd 1d67 0abe feb5 bcbd 5b6c 4a3e
00000010: 97b9 9d3d 0f7d cfbd 6eb3 fe3d 91dd d33b
00000020: 3e11 593e b703 da3d 3554 0fbe ec46 08be
00000030: b129 6f3d 842c 0cbe a097 263e 519e 6a3e
00000040: 1021 36be f009 163e 5993 b3bd 9adb a13d
00000050: ec1f 01be e101 f63c 7f8e 073e 0e92 abbd
00000060: 2b56 d53c 9509 cfbd e23d 853b 0063 d43b
00000070: 8127 2fbd cb3b 643e 6cf8 353e 4d07 02be
00000080: 2399 783d ee5e 963d da14 a8bd 5b4c b6bb
00000090: d964 053e 1be3 013e fe76 403e 09e2 48be
000000a0: 5e22 36bc 7754 febc 7b95 25be fb0e 62be
000000b0: ba2e 823c 3b29 453d bfab c43d ac45 b5bd
000000c0: fd5e 173e 98ba 043e 7805 e2bd fd7a 4cbe
000000d0: cf7d 97bd dba7 d3bd 4a44 793e 22c9 00be
000000e0: 5dab 7b3d 5ea9 9e3e 19b6 c23d ca32 5dbd
000000f0: 5ef6 1d3e ffef c73d 1b98 3bbe 909f 803e
00000100: 496f 333e 1d78 a4bd 0a48 4d3e 18ff 7e3d
00000110: ccf5 a7bd 9856 dd3d 6d36 70bd 4dfe 10be
00000120: 9e1c 573e 0852 85bd f6a9 babd 72ca 7b3d
00000130: bcbb febc d131 03be 52cd d23d 21fd 1abe
00000140: fcf0 4ebd 5e2f 363c fa66 2d3d d210 673e
00000150: 0dff 283d f6b9 d33d 141a 813e 890d f7bd
00000160: ae2c 13be 137b 7dbc 5788 c13d 0569 08be
00000170: 01e4 5fbd 232c cb3b c593 943d ac2d 653e
00000180: 0740 3ebe bdc9 12be 75ee 963d c261 f5bd
00000190: 88cb 04bb 74a2 023e 07db 0dbd fc0e f23b
000001a0: 41e0 373d 74a0 8ebd e6e8 cdbc 30e2 c13d
000001b0: a9ad e0bd 9333 52bd fd58 66be 40ec 943d
000001c0: a442 483e 90b3 46bd ddf3 003d 584d a53e
000001d0: 1247 c2bc 3a7c d3bd d274 263e 6117 0b3e
000001e0: 09d8 bd3d 9d4c 35bd 8f63 80bd d130 283e
000001f0: 7715 6c3e f9a5 3c3e 0138 2fbe ab13 da3d
00000200: ec49 c7bd c326 c03d 7418 b2bb 9b1e 303d
00000210: f582 75ba d586 b83e d6da fe3b d4f8 81bd
00000220: d026 29be f498 c33d 7ba2 273d 7c80 b43d
00000230: e4a9 e2bd e8b5 3f3c f329 ec3c c578 e5bd
00000240: e7b7 4abe 9693 743d 4188 343d 594f 47be
00000250: 18b2 3f3e fe1a d6bd b5f0 57bd 2c65 83bd
00000260: 8d1f c5bd 407b 163d b669 ba3d 6c6c 2c3e
00000270: 636b 0cbe d39a 4b3e 2b4c 80bd 366a b33d
00000280: 42d9 5b3d 8919 1e3e 340d 0b3b 7d56 243e
00000290: 0909 debc aabb 193c c6de f83d 2912 073e
000002a0: fe6f c3bd 07f6 5a3e c781 29be 4a7d f83c
000002b0: 2b63 00be dcfe 12be f3d3 3a3e 8418 f7bd
000002c0: c36e c93c 48d2 33be 05f4 083e bdd5 21be
000002d0: 5bd4 5c3a bd9b 2f3e 193f 77bd 52f4 07be
000002e0: 9e40 21be 73f7 f63a 4a91 bebd 7672 3f3e
000002f0: 5359 e8bc 884e 1ebe cdbb 83bd e110 f13d
00000300: 58da 06bd 88ba 103e d380 8cbd 4a51 2f3e
00000310: c339 d03d a606 343d 54b7 fd3d 07e0 92bc
00000320: ca34 5abd 9a48 6c3e 5b95 1a3e 32f1 533e
00000330: 8d14 8cbc 792c dabb b589 793d bf34 b93c
00000340: 3191 ae3d 4128 95bd 5935 ddbd c801 033e
00000350: db47 0fbe 3825 f73c 93d3 1c3e c62a 0b3e
00000360: 72e4 b83d 949f 93bd 91aa 23be 7a4e 273e
00000370: 0d0a e03d d857 c6bd 2fff ca3c 2eb9 f83d
00000380: fd88 87bc 80b1 b93d 5e0a a9bd c82f 1a3e
00000390: 4f22 e9bc 7cb6 bcbd 52ea 5b3d 8d5e e63d
000003a0: 1ba1 e53b e402 02be 75e5 223e 57c6 3fbe
000003b0: 5aa4 623b bac3 343d 8e95 6fbe 18ef da3d
000003c0: b7a0 ffbd 7f5d 03be 6bb1 4e3d 7995 e53a
000003d0: 55f2 563d 651a d8bd 2637 4abe f19b 223d
000003e0: 3ff3 b5bd 1581 a4bb d346 363e 2523 d7bd
000003f0: 3a62 1ebd 6f64 88bd 7c5c 2bbd 78bc 83bd

features.0.bias f4 [32]
-0.082968324 -0.025876403 -0.23405457 -0.06492415 -0.12724267 0.069266476 -0.010726471 0.0889411
0.22350769 0.106454745 -0.09662872 -0.19315973 -0.055865444 -0.08774818 -0.021596672 -0.20405406
0.08900901 0.048643943 -0.1180671 -0.1830057 0.25439945 -0.04658359 -0.1679538 0.053685524
-0.18169723 0.2319818 -0.10649527 -0.14987597 -0.10429653 0.10032022 0.21960133 0.096037574
00000000: 4ceb a9bd c0fa d3bc 00ac 6fbe f4f6 84bd
00000010: e74b 02be 95db 8d3d 15be 2fbc c026 b63d
00000020: 33df 643e f204 da3d 47e5 c5bd aacb 45be
00000030: 2ad3 64bd 51b5 b3bd 81eb b0bc 8cf3 50be
00000040: 5b4a b63d df3e 473d 2acd f1bd d965 3bbe
00000050: a540 823e 6fce 3ebd 15fc 2bbe 5ae5 5b3d
00000060: d70e 3abe a38c 6d3e 311a dabd 1679 19be
00000070: 6b99 d5bd b074 cd3d 2cdf 603e 59af c43d

features.1.weight f4 [32]
0.9055128 1.0987203 0.86925745 0.82464075 0.88648266 1.096064 0.9850016 0.8571436
1.0623436 0.88141435 0.91410804 0.9951517 1.1022434 1.1225866 0.9800167 0.9758048
1.0112189 1.0615565 0.9337605 0.88518023 1.2259008 0.8121686 0.9293566 1.0651952
0.9096822 0.95629513 0.9116021 0.9557335 0.9263811 0.9393298 1.0032997 0.91317457
00000000: b0cf 673f dea2 8c3f a887 5e3f a81b 533f
00000010: 87f0 623f d34b 8c3f 1129 7c3f c36d 5b3f
00000020: e0fa 873f 5fa4 613f fc02 6a3f 43c2 7e3f
00000030: 5016 8d3f ebb0 8f3f 60e2 7a3f 58ce 793f
00000040: 9f6f 813f 15e1 873f ee0a 6f3f 2c9b 623f
00000050: 51ea 9c3f 48ea 4f3f 50ea 6d3f 5158 883f
00000060: efe0 683f c2cf 743f c15e 693f f3aa 743f
00000070: 5027 6d3f eb77 703f 206c 803f cfc5 693f

features.1.bias f4 [32]
0.056595217 0.28444695 0.060280807 0.039816316 -0.10867092 -0.007403019 0.019142473 0.016623084
0.07359212 0.050243545 -0.25644293 0.2895258 0.41597334 0.2654814 0.109799474 -0.08843822
0.2597692 -0.120499514 -0.1063064 -0.064751044 0.25895873 0.018879257 -0.040414095 0.0437723
-0.2311378 0.09968828 -0.106857836 0.18383384 -0.1758711 -0.15097019 0.43470186 -0.039511304
00000000: 63d0 673d 08a3 913e 02e9 763d 6f16 233d
00000010: dc8e debd 0695 f2bb add0 9c3c 222d 883c
00000020: 77b7 963d 2dcc 4d3d 7d4c 83be ba3c 943e
00000030: 75fa d43e 2eed 873e 8cde e03d 191f b5bd
00000040: 7800 853e 73c8 f6bd 2bb7 d9bd 329c 84bd
00000050: 3d96 843e aca8 9a3c 4089 25bd 954a 333d
00000060: 63af 6cbe 5e29 cc3d 48d8 dabd f03e 3c3e
00000070: 8e17 34be ee97 1abe 3e91 de3e 9bd6 21bd

features.1.running_mean f4 [32]
-0.1770744 -0.012144727 -0.6048627 -0.22049831 -0.6587299 0.075020745 0.03300739 -0.40169552
0.2539392 0.040409125 0.06755769 -0.17871065 -0.041089278 -0.07720512 -0.0096854 -0.018610248
0.100079276 0.15689017 -0.03180612 -0.7142043 0.25768992 -0.44223115 -0.4187188 0.06736828
0.1178148 0.20805329 0.42072916 -0.12491199 -0.01638637 0.18076526 0.22241563 -0.46842062
00000000: fe52 35be adfa 46bc 48d8 1abf 4fca 61be
00000010: 86a2 28bf 7aa4 993d c232 073d 09ab cdbe
00000020: 5204 823e 0a84 253d b05b 8a3d edff 36be
00000030: 3b4d 28bd b81d 9ebd 83af 1ebc 8574 98bc
00000040: 5df6 cc3d d1a7 203e 2247 02bd 18d6 36bf
00000050: efef 833e 1f6c e2be 5062 d6be 61f8 893d
00000060: e348 f13d ec0b 553e d069 d73e dbd1 ffbd
00000070: b53c 86bc 871a 393e ecc0 633e d4d4 efbe

features.1.running_var f4 [32]
0.038853936 0.015738843 0.20482261 0.05474802 0.32916325 0.019619308 0.025622165 0.25053725
0.021286078 0.027684595 0.050207857 0.013222536 0.025229597 0.022625742 0.027617779 0.05197603
0.016122153 0.044268303 0.024350317 0.29372993 0.019747136 0.20977579 0.07887782 0.0144341
0.12978901 0.027399624 0.30201405 0.018227521 0.03978125 0.02675899 0.01957729 0.33440748
00000000: 4e25 1f3d bfee 803c 05bd 513e 763f 603d
00000010: 1688 a83e acb8 a03c 93e5 d13c 6b46 803e
00000020: 2460 ae3c ceca e23c c1a6 4d3d 56a3 583c
00000030: 4dae ce3c 9f59 b93c ae3e e23c d1e4 543d
00000040: 9b12 843c ae52 353d 517a c73c c563 963e
00000050: bfc4 a13c 77cf 563e b28a a13d 017d 6c3c
00000060: 69e7 043e 2d75 e03c 96a1 9a3e e251 953c
00000070: aaf1 223d ab35 db3c 8e60 a03c 7537 ab3e

features.4.weight f4 [64, 32, 3, 3]
-0.093729645 -0.028347503 -0.007560093 0.011879408 -0.007250404 -0.020806124 -0.08259222 -0.08298785
-0.051876087 -0.020793715 -0.084853426 -0.032374155 -8.423915e-05 -0.07759417 0.026146991 -0.08082893
-0.07465266 0.013989425 0.0062572095 0.024383105 -0.015543621 -0.016539006 -0.04218507 -0.00027056766
-0.008633511 -0.029105643 -0.07733468 -0.07404414 0.038226105 -0.04175374 -0.01580423 0.020992966
-0.054044973 -0.025304956 -0.09076322 -0.06396267 -0.053760104 0.047538582 0.037960157 0.03307138
-0.037126034 0.028683364 -0.03319022 0.0047727963 -0.0010116267 0.101081744 0.14951174 0.040746894
-0.0016383237 0.078507915 0.0102444375 -0.06800507 0.023024673 -0.07286175 -0.00528506 0.14673
0.0041591343 -0.047742244 0.024033545 -0.018213982 -0.1413773 -0.010611597 -0.008234097 -0.045203105
-0.040156394 0.007970855 0.0030010822 -0.053053353 -0.013867327 -0.08324973 -0.019806162 0.004789881
-0.025045272 0.042807 0.12851349 -0.08819113 -0.08126378 0.09275859 -0.16339071 -0.10256236
0.07534328 -0.002469251 0.038687933 -0.020975402 -0.021193309 0.034655195 -0.049272582 -0.04601439
0.065650664 0.021455862 0.010618157 -0.042185187 0.0031529109 -0.010324624 -0.13576448 -0.053978186
-0.06359788 -0.06732257 0.032934792 -0.079516225 0.017655384 0.002407586 -0.11753277 -0.025712816
0.027385883 -0.053706728 -0.02605631 0.07391124 0.035924952 0.073378585 -0.10787284 0.06288296
0.05038372 -0.08181034 -0.014797046 -0.0040960386 -0.14893928 -0.009752365 -0.014578768 0.034738436
-0.07255932 0.013034717 0.047059353 4.6274166e-05 0.0041814186 0.023425343 -0.021899953 -0.022730125
0.09900258 -0.088501945 0.033584982 0.020222517 -0.1541525 0.032309365 0.043556564 0.0021454403
-0.031311996 0.025283985 0.07201526 0.027302217 0.05160607 0.0013720168 0.02753763 -0.010292282
-0.14186637 0.07695423 0.074222885 -0.21710259 -0.0065326556 0.13802439 -0.17012897 0.029421577
0.11398298 -0.0013293263 -0.09388554 -0.06984869 -0.033401556 -0.17333418 -0.025604686 -0.047333155
-0.13842632 -0.018227493 -0.05399778 -0.01864216 -0.035462663 -0.06523263 0.008737415 0.014798747
-0.0067452085 -0.0009341926 0.09539827 0.025383627 0.032116637 -0.042199947 -0.0046544205 0.06264405
0.04579676 -0.0076795584 -0.04841158 0.03602549 0.08559874 0.0085472 -0.04738156 -0.050852653
-0.03573949 -0.021306055 -0.011297862 -0.051671144 -0.057051137 0.0053606816 0.00608077 -0.02901191
-0.08397277 0.0313583 0.017562516 -0.014765544 -0.06855638 -0.06757927 0.031792123 -0.0277626
0.011143038 -0.06686855 0.016169228 0.0026065055 -0.070871376 0.0056617823 -0.01612426 -0.06126359
-0.003909686 0.10078062 -0.055334605 0.031239418 0.055587042 -0.16891189 0.060517546 0.07734189
-0.016762722 -0.030377658 0.10331617 -0.09313859 -0.07534752 -0.045747768 -0.107363746 -0.07161654
0.039163403 -0.058139082 0.010548004 0.006972264 -0.021292252 -0.030973902 0.025491495 -0.03507287
0.0031930928 -0.03427202 0.08323221 0.039569683 0.0812839 0.031432133 -0.098072775 -0.033521872
-0.0026171305 0.005122553 0.034974813 0.058635812 -0.057842255 -0.097434744 0.030565357 -0.05958635
-0.049258288 -0.05099745 -0.109404854 -0.117879 0.035567746 -0.0965601 -0.0050319512 -0.10301742
00000000: 54f5 bfbd 0639 e8bc a8ba f7bb d9a1 423c
00000010: cc94 edbb 9b71 aabc 1c26 a9bd 89f5 a9bd
00000020: 057c 54bd 9557 aabc a2c7 adbd c39a 04bd
00000030: 8da9 b0b8 b1e9 9ebd 3732 d63c a389 a5bd
00000040: 7ee3 98bd e733 653c 4709 cd3b 14bf c73c
00000050: acaa 7ebc cf7c 87bc 41ca 2cbd fada 8db9
00000060: 9273 0dbc f56e eebc a561 9ebd 74a4 97bd
00000070: fa92 1c3d f805 2bbd df77 81bc 71f9 ab3c
00000080: 435e 5dbd 574c cfbc 11e2 b9bd dcfe 82bd
00000090: 8e33 5cbd d1b7 423d 1c7c 1b3d db75 073d
000000a0: 7811 18bd 60f9 ea3c 78f2 07bd 1e65 9c3b
000000b0: 8f98 84ba f203 cf3d 9b19 193e 37e6 263d
000000c0: 05bd d6ba c2c8 a03d 49d8 273c 3e46 8bbd
000000d0: 3d9e bc3c 8b38 95bd 4c2e adbb 6440 163e
000000e0: 5949 883b 5f8d 43bd ffe1 c43c 7d35 95bc
000000f0: 36c5 10be 44dc 2dbc 4ee8 06bc e426 39bd
00000100: 087b 24bd 3098 023c cead 443b 794e 59bd
00000110: c933 63bc d67e aabd 8840 a2bc 6ff4 9c3b
00000120: be2b cdbc 6556 2f3d 0a99 033e 8d9d b4bd
00000130: a06d a6bd 37f8 bd3d e54f 27be 370c d2bd
00000140: 944d 9a3d 28d3 21bb 3d77 1e3d 9bd4 abbc
00000150: 979d adbc 9bf2 0d3d 0cd2 49bd 9679 3cbd
00000160: db73 863d 34c4 af3c c7f7 2d3c 60ca 2cbd
00000170: 11a1 4e3b 9d28 29bc d805 0bbe 3b18 5dbd
00000180: 9b3f 82bd 6ae0 89bd a2e6 063d 67d9 a2bd
00000190: 06a2 903c 97c8 1d3b 05b5 f0bd afa3 d2bc
000001a0: 5c58 e03c 96fb 5bbd 0b74 d5bc c75e 973d
000001b0: 0b26 133d 8347 963d 6fec dcbd c8c8 803d
000001c0: 295f 4e3d 2e8c a7bd 4f6f 72bc 1038 86bb
000001d0: 8a83 18be 62c8 1fbc c9db 6ebc e449 0e3d
000001e0: fb99 94bd 918f 553c 4fc1 403d 8216 4238
000001f0: 4804 893b 81e6 bf3c 8867 b3bc 8734 babc
00000200: ddc1 ca3d 8240 b5bd 6890 093d b1a9 a53c
00000210: 27da 1dbe d356 043d 5e68 323d 849a 0c3b
00000220: 0241 00bd 5c20 cf3c bd7c 933d e6a8 df3c
00000230: e360 533d 3fd5 b33a 9996 e13c f6a0 28bc
00000240: 6b45 11be 2e9a 9d3d 2b02 983d 2450 5ebe
00000250: e30f d6bb 4456 0d3e 4a36 2ebe 8505 f13c
00000260: e96f e93d ca3c aeba 1047 c0bd d40c 8fbd
00000270: 12d0 08bd 847e 31be ebc0 d1bc 69e0 41bd
00000280: a1bf 0dbe d351 95bc c72c 5dbd 71b7 98bc
00000290: 4c41 11bd af98 85bd 6027 0f3c 7276 723c
000002a0: e906 ddbb 9be4 74ba 2b60 c33d 53f1 cf3c
000002b0: bc8c 033d dad9 2cbd 1c84 98bb 864b 803d
000002c0: 6295 3b3d cea4 fbbb 394b 46bd 778f 133d
000002d0: 644e af3d 8e09 0c3c 2b13 42bd df4a 50bd
000002e0: 9263 12bd 098a aebc ab1a 39bc 1fa5 53bd
000002f0: 74ae 69bd a8a8 af3b 3241 c73b 63aa edbc
00000300: eaf9 abbd 9071 003d 44df 8f3c 2eeb 71bc
00000310: 4a67 8cbd 0067 8abd 7538 023d 646e e3bc
00000320: 4a91 363c 61f2 88bd 5475 843c e8d1 2a3b
00000330: 0325 91bd 7986 b93b 0617 84bc 88ef 7abd
00000340: d31c 80bb 1266 ce3d 8aa6 62bd cfe9 ff3c
00000350: 3daf 633d 3df7 2cbe 3fe1 773d 6d65 9e3d
00000360: fa51 89bc 91da f8bc 6e97 d33d 72bf bebd
00000370: cd4f 9abd 0362 3bbd 86e1 dbbd b1ab 92bd
00000380: ce69 203d 3f23 6ebd 89d1 2c3c 9777 e43b
00000390: 176d aebc fbbc fdbc 8ad3 d03c 92a8 0fbd
000003a0: 3543 513b d160 0cbd a675 aa3d d213 223d
000003b0: 2c78 a63d fbbe 003d 61da c8bd 3b4e 09bd
000003c0: 2a84 2bbb 17db a73b c041 0f3d 1b2c 703d
000003d0: 00ec 6cbd de8b c7bd 3364 fa3c d110 74bd
000003e0: 0fc3 49bd b4e2 50bd a70f e0bd 8c6a f1bd
000003f0: 7caf 113d 4dc1 c5bd 11e3 a4bb ccfa d2bd

features.4.bias f4 [64]
-0.060386557 0.040777072 -0.0009342252 0.065814294 0.0046794647 -0.033418193 -0.0064435964 0.014220281
0.117215045 -0.17617191 -0.058072235 -0.013972571 0.05669949 0.017899148 0.04113402 0.06783046
0.044757925 0.051396023 0.024539175 -0.10986337 -0.031625506 -0.042854406 -0.016104994 -0.003134955
0.041492462 0.069562815 0.06352367 -0.067846365 0.018563664 0.050053738 0.046829227 0.14005055
-0.0028067504 -0.058476362 -0.032568235 0.03391228 0.10087262 -0.083888836 -0.10063319 -0.07038937
0.06001244 -0.030955467 0.05883748 -0.105748706 -0.078506745 -0.02402042 0.03710457 -0.07172989
0.0688388 -0.028136542 -0.07269162 0.03211898 0.09028726 -0.10104242 -0.09411833 0.0070949006
0.034436014 -0.13905326 0.041889746 0.015000991 0.0029946263 -0.005813185 -0.055523697 -0.05194655
00000000: e557 77bd dc05 273d cbe6 74ba a5c9 863d
00000010: 3256 993b 84e1 08bd ce24 d3bb 2efc 683c
00000020: 710e f03d 6966 34be 27dd 6dbd 36ed 64bc
00000030: b93d 683d 3ca1 923c 257c 283d b2ea 8a3d
00000040: 1654 373d a384 523d 6106 c93c 0c00 e1bd
00000050: bf89 01bd 1a88 2fbd 9fee 83bc d173 4dbb
00000060: 00f4 293d f376 8e3d b318 823d 09f3 8abd
00000070: d312 983c 2605 4d3d 01d0 3f3d 6969 0f3e
00000080: 75f1 37bb e984 6fbd 4566 05bd 9ae7 0a3d
00000090: 4e96 ce3d e9cd abbd c618 cebd 4d28 90bd
000000a0: 9bcf 753d 5296 fdbc 92ff 703d c792 d8bd
000000b0: 25c8 a0bd 79c6 c4bc f6fa 173d 1fe7 92bd
000000c0: 5bfb 8c3d 9b7e e6bc 58df 94bd 318f 033d
000000d0: 87e8 b83d 54ef cebd 1cc1 c0bd 577c e83b
000000e0: c70c 0d3d fa63 0ebe 9594 2b3d b7c6 753c
000000f0: 7e41 443b 887c bebb d16c 63bd e8c5 54bd

features.5.weight f4 [64]
0.99864477 1.1766951 0.96186084 0.93277323 0.91312224 1.0500102 1.1071792 1.130029
0.7534274 1.0177425 0.8598966 0.8766958 0.8921557 1.0077088 0.839539 0.9006232
0.98280287 0.9299499 1.0327917 0.9408822 0.82174927 0.79240245 1.0593513 1.1215835
0.84297854 0.9098428 0.89852804 0.9304125 1.1516366 0.86344993 0.8025661 0.9759517
0.9644996 0.93427944 0.9081343 1.1019138 0.9523737 0.75260293 1.1374155 1.0816764
1.1816702 0.9806299 0.89681774 1.2731255 1.0526463 1.2047683 1.0810931 1.0227028
0.8895214 1.2023683 1.139453 1.1429263 0.81694525 0.8582607 1.0099778 0.90919137
0.94016474 0.9991956 1.1612536 0.7926875 1.1110696 0.9523876 0.895508 1.0236568
00000000: 2fa7 7f3f f29d 963f 833c 763f 3aca 6e3f
00000010: 61c2 693f bc66 863f 0cb8 8d3f caa4 903f
00000020: 9ee0 403f 6345 823f 2f22 5c3f 236f 603f
00000030: 5164 643f 9afc 803f 07ec 563f 3e8f 663f
00000040: f898 7b3f 3211 6e3f 8532 843f a8dd 703f
00000050: 295e 523f e3da 4a3f d398 873f 0c90 8f3f
00000060: 71cd 573f 75eb 683f ef05 663f 832f 6e3f
00000070: d468 933f 0e0b 5d3f f974 4d3f f8d7 793f
00000080: 72e9 763f f02c 6f3f 7d7b 683f 830b 8d3f
00000090: c3ce 733f 96aa 403f d596 913f 5f74 8a3f
000000a0: f840 973f 900a 7b3f d995 653f c7f5 a23f
000000b0: 1dbd 863f d935 9a3f 4261 8a3f ede7 823f
000000c0: adb7 633f 34e7 993f 99d9 913f 694b 923f
000000d0: 5323 513f f9b6 5b3f f446 813f c4c0 683f
000000e0: a3ae 703f 48cb 7f3f f5a3 943f 91ed 4a3f
000000f0: 8737 8e3f accf 733f 0340 653f 3007 833f

features.5.bias f4 [64]
-0.11128978 -0.05801677 -0.1336609 -0.2628092 -0.09609747 -0.09545611 -0.03019108 -0.012320642
-0.3672291 -0.22095297 -0.27777568 -0.29213607 -0.22733785 -0.007135035 -0.09042005 -0.21846488
-0.1587261 -0.2662209 -0.09647077 -0.09399606 -0.19470166 -0.23493668 -0.021166729 -0.27213836
-0.32836947 -0.15578751 -0.21052837 -0.15898651 -0.19151422 -0.1988681 -0.27991608 -0.19395469
-0.013908313 -0.16507474 -0.23713541 -0.19514757 -0.24796116 -0.32337978 -0.019276416 -0.27956444
-0.083703384 -0.21427861 -0.07290298 0.017605657 -0.07601772 -0.1725068 0.013163632 -0.20576511
-0.08595829 -0.029381396 -0.11264188 -0.25351986 -0.11700305 -0.26086152 -0.17220107 -0.29835847
-0.099964365 -0.2183554 -0.12355147 -0.19139239 -0.0709164 -0.06299603 -0.22510414 -0.25011554
00000000: e5eb e3bd fea2 6dbd 67de 08be ed8e 86be
00000010: c0ce c4bd 7e7e c3bd 4953 f7bc 85dc 49bc
00000020: 7405 bcbe 7f41 62be 9d38 8ebe dc92 95be
00000030: 41cb 68be 03cd e9bb 262e b9bd 42b5 5fbe
00000040: 1889 22be 1b4e 88be 7892 c5bd 0281 c0bd
00000050: df5f 47be 3e93 70be d965 adbc b855 8bbe
00000060: 0b20 a8be c386 1fbe c094 57be 5ccd 22be
00000070: 4e1c 44be 14a4 4bbe 2951 8fbe 0f9c 46be
00000080: b1df 63bc 5a09 29be a0d3 72be c4d4 47be
00000090: 88e9 7dbe 0992 a5be 93e9 9dbc 1223 8fbe
000000a0: ae6c abbd da6b 5bbe 284e 95bd bd39 903c
000000b0: 2eaf 9bbd 9fa5 30be 46ac 573c 17b4 52be
000000c0: e60a b0bd 41b1 f0bc c9b0 e6bd 5bcd 81be
000000d0: 4c9f efbd a48f 85be 7a55 30be 71c2 98be
000000e0: 1eba ccbd 8f98 5fbe 8e08 fdbd 5efc 43be
000000f0: 9e3c 91bd 1004 81bd b381 66be 250f 80be

features.5.running_mean f4 [64]
-2.613038 -2.2355902 -2.2537727 -3.3590133 -2.9428477 -1.9052836 -1.5265539 -1.6931962
-0.2993302 -0.50420654 -3.016701 -1.5817391 -1.0740914 -1.6333958 1.9815679 -4.7819843
-1.9954795 -2.9597068 -1.278816 -4.121248 -5.4745264 -0.7605249 -1.1731426 -2.7653325
-1.9121454 -1.0356609 -3.8330164 -3.5392942 -1.7972302 -4.10021 1.2642097 -0.5472624
-1.5579808 -3.2400548 1.8608832 -2.2475355 -1.5414207 -1.757552 -1.8222712 0.41382894
-1.6695352 -4.6122093 -3.4090555 -1.2360106 -2.3636851 -1.7571467 -1.1151047 -2.3772519
-2.585321 -1.5678784 -1.6514323 -1.2781972 0.7396408 -0.46579993 -2.4194088 0.9216759
-2.6740434 -4.4048567 -1.265197 0.663363 -1.3279145 -1.584618 -2.2764494 -0.6963575
00000000: 043c 27c0 e913 0fc0 d03d 10c0 13fa 56c0
00000010: 9e57 3cc0 55e0 f3bf 1e66 c3bf a7ba d8bf
00000020: cf41 99be ae13 01bf a111 41c0 6d76 cabf
00000030: d47b 89bf 1d13 d1bf 04a4 fd3f 0406 99c0
00000040: df6b ffbf d66b 3dc0 3eb0 a3bf 43e1 83c0
00000050: 522f afc0 c3b1 42bf 8929 96bf 35fb 30c0
00000060: 2ec1 f4bf 8990 84bf 2450 75c0 cc83 62c0
00000070: a40b e6bf ec34 83c0 a0d1 a13f 6319 0cbf
00000080: ea6b c7bf 0f5d 4fc0 6c31 ee3f 9fd7 0fc0
00000090: 464d c5bf 77f7 e0bf 2f40 e9bf 63e1 d33e
000000a0: 54b3 d5bf 3897 93c0 f72d 5ac0 9835 9ebf
000000b0: 9e46 17c0 2fea e0bf c0bb 8ebf e524 18c0
000000c0: e675 25c0 3db0 c8bf 2262 d3bf f79b a3bf
000000d0: 1959 3d3f 547d eebe 98d7 1ac0 f4f2 6b3f
000000e0: 8723 2bc0 96f4 8cc0 faf1 a1bf 28d2 293f
000000f0: 1af9 a9bf c3d4 cabf 59b1 11c0 7c44 32bf

features.5.running_var f4 [64]
5.560571 5.487232 10.149737 8.956913 9.879137 6.1478877 3.4711676 3.0180743
6.416104 4.547336 7.888776 2.9387622 3.1263738 3.4225688 7.0470533 14.605321
5.84289 9.42018 3.7038524 18.213837 18.35959 5.5934834 2.7445474 9.860554
4.3606443 2.5248883 13.478077 11.984797 3.993419 11.135937 8.694429 1.9252828
3.009735 11.456929 6.4317145 6.204485 3.1293538 5.125475 6.2681155 4.6190395
3.7137842 15.654974 7.0714107 1.9232785 6.512644 3.3381305 3.2076042 5.094459
6.804416 4.10156 3.7495344 3.1686463 5.9053483 5.3651175 7.545401 4.427882
5.2379084 16.84425 4.454917 4.078708 3.5548763 5.8668704 7.1539345 4.4611278
00000000: 33f0 b140 6897 af40 5365 2241 844f 0f41
00000010: f210 1e41 7fbb c440 9c27 5e40 2128 4140
00000020: b950 cd40 c783 9140 da70 fc40 ae14 3c40
00000030: 8216 4840 5e0b 5b40 7681 e140 65af 6941
00000040: f4f8 ba40 0fb9 1641 eb0b 6d40 f0b5 9141
00000050: 71e0 9241 d1fd b240 aaa6 2f40 d4c4 1d41
00000060: 668a 8b40 c597 2140 34a6 5741 bac1 3f41
00000070: 2d94 7f40 cc2c 3241 621c 0b41 ab6f f63f
00000080: 809f 4040 954f 3741 9bd0 cd40 248b c640
00000090: 5547 4840 e403 a440 6794 c840 2ccf 9340
000000a0: a4ae 6d40 c67a 7a41 ff48 e240 fd2d f63f
000000b0: 9467 d040 eea3 5540 6349 4d40 cf05 a340
000000c0: c7bd d940 fb3f 8340 5ff8 6f40 1acb 4a40
000000d0: 9df8 bc40 0baf ab40 ed73 f140 36b1 8d40
000000e0: f29c a740 06c1 8641 ae8e 8e40 c784 8240
000000f0: 1883 6340 67bd bb40 08ed e440 8fc1 8e40

features.8.weight f4 [96, 64, 3, 3]
0.06458997 0.09201011 0.08947467 -0.052920908 -0.010084172 0.0025933175 -0.008653137 -0.081287645
-0.049074356 -0.104625165 -0.09634 -0.06946432 -0.008212082 0.0024005296 -0.016943876 0.033197187
-0.04914632 -0.014353843 0.06261018 0.022882456 0.012717592 0.0104335705 -0.03986187 -0.02734568
-0.054385897 -0.09222769 -0.118623786 -0.02010828 -0.026069975 -0.029987378 -0.044472534 -0.0045805797
-0.03557105 -0.10064645 -0.066078834 -0.10822985 0.053974684 0.04128382 0.08841808 -0.039312657
0.021243252 0.012195258 -0.053898383 -0.087709896 -0.050793506 0.0371577 0.09743625 0.10255497
-0.0064536748 0.030005086 0.044099502 -0.04902817 -0.02888822 -0.010917988 0.06526664 0.065526634
0.032004233 0.0029718007 0.004761542 0.030213393 0.041829564 0.02392092 0.060628932 -0.04585967
-0.062028337 0.002005916 -0.011869847 -0.05411826 -0.0013889099 0.054238554 0.09907743 0.060104
-0.015673503 -0.07085347 -0.069724716 0.033843577 -0.007054291 -0.013584787 0.0825534 0.09404101
0.09808619 -0.0258797 0.055485487 0.010122769 0.009778006 0.03494584 0.011650364 -0.09910318
-0.066717096 -0.10469818 0.054045457 0.08574278 0.030505607 0.009878697 -0.031335246 0.016885854
-0.03408539 -0.052246794 -0.06687128 -0.0077186152 0.04351234 0.012993768 -0.088054225 -0.026083125
-0.07565124 -0.14000097 -0.14273238 -0.13455124 -0.0095793195 -0.014249271 -0.045464072 -0.026984038
-0.028483426 -0.015064666 0.07674688 0.057902854 0.015941659 -0.015350305 -0.0075165583 -0.034936607
-0.023456221 -0.009554384 -6.85834e-05 0.031481065 -0.004310509 -0.03678402 -0.044163458 -0.052797575
-0.07144793 -0.006995293 -0.041164704 0.01981769 0.0038078965 0.0007262808 0.05393919 -0.003400211
-0.02826268 -0.03181221 -0.013461672 0.0041767033 -0.030924037 -0.013314681 0.0030119354 -0.002295191
-0.0135579845 -0.016910486 0.0011725542 -0.038903575 -0.067608684 -0.034248646 -0.14513701 -0.11787013
-0.1389559 -0.035141625 -0.0198743 -0.022495015 -0.050833717 -0.0016323115 -0.039457075 -0.04484281
-0.0022076333 -0.07221449 -0.061327018 0.011864638 0.0040559354 0.044673152 -0.023564488 -0.0053693685
0.11736499 0.13442762 0.03082716 0.034843925 0.02705705 0.005970898 0.00621655 -0.024222508
-0.015856054 -0.04570419 -0.100071535 -0.030640574 -0.05267973 -0.07315183 -0.025053645 0.0049593183
0.029209517 -0.0068577654 -0.013064585 -0.029302549 0.021388153 0.013044195 0.030299293 -0.0072238115
-0.02587457 -0.07208973 -0.026291676 -0.08790101 -0.08540176 -0.09694853 -0.0015623794 -0.011517663
-0.016366217 0.007821259 0.024584832 -0.011163935 0.09896699 0.088966444 0.04854458 -0.03455192
-0.06974403 -0.03627574 -0.078093536 -0.07804786 -0.02715967 -0.10180029 -0.10607036 -0.085040614
0.0695171 0.08477088 0.016631158 -0.018974962 -0.017699914 0.031023374 -0.018469866 -0.053351007
0.030210273 0.016583884 -0.034806184 0.026233869 0.06572538 -0.0092960475 0.029653046 0.05990666
0.102151975 0.064360864 0.030290438 0.07590973 0.057297606 -0.03434221 -0.03516174 -0.0028226478
-0.033136953 -0.0071281977 -0.0071066483 0.008849894 0.0008327425 0.011159811 0.015849963 -0.03191956
-0.008590811 -0.04332662 -0.051891584 -0.02447563 0.06848334 0.039440427 0.03019803 -0.003656477
00000000: bf47 843d cc6f bc3d 7f3e b73d 98c3 58bd
00000010: 1538 25bc a6f4 293b e3c5 0dbc 237a a6bd
00000020: 3102 49bd b845 d6bd e84d c5bd 4f43 8ebd
00000030: f88b 06bc 3452 1d3b e2cd 8abc c6f9 073d
00000040: a74d 49bd 622c 6bbc c439 803d fd73 bb3c
00000050: 725d 503c 91f1 2a3c 3346 23bd 0c04 e0bc
00000060: bfc3 5ebd dfe1 bcbd 07f1 f2bd 1fba a4bc
00000070: b390 d5bc 17a8 f5bc d528 36bd b018 96bb
00000080: f3b2 11bd ba1f cebd 5754 87bd 9da7 ddbd
00000090: 8f14 5d3d 3919 293d 8a14 b53d 4f06 21bd
000000a0: 5406 ae3c 9fce 473c 8dc4 5cbd 3fa1 b3bd
000000b0: da0c 50bd ac32 183d a88c c73d 5708 d23d
000000c0: 5979 d3bb 3acd f53c aea1 343d c3d1 48bd
000000d0: fda6 ecbc 5ce1 32bc 84aa 853d d432 863d
000000e0: df16 033d 8bc2 423b b606 9c3b 1482 f73c
000000f0: 7a55 2b3d cef5 c33c 0b56 783d 59d7 3bbd
00000100: 6d11 7ebd b075 033b bf79 42bc 1cab 5dbd
00000110: 150c b6ba 3f29 5e3d 1ce9 ca3d 9d2f 763d
00000120: b865 80bc a01b 91bd d5cb 8ebd 909f 0a3d
00000130: af27 e7bb ba92 5ebc c211 a93d 9398 c03d
00000140: 6ae1 c83d aa01 d4bc c044 633d f8d9 253c
00000150: ee33 203c 5e23 0f3d 2be1 3e3c 9cf6 cabd
00000160: f9a2 88bd 006c d6bd c55e 5d3d e999 af3d
00000170: e5e6 f93c 42da 213c 6359 00bd 3454 8a3c
00000180: 1f9d 0bbd bc00 56bd cff3 88bd 70ec fcbb
00000190: ff39 323d d0e3 543c c655 b4bd 47ac d5bc
000001a0: 0aef 9abd 6a5c 0fbe 7028 12be cdc7 09be
000001b0: 94f2 1cbc c675 69bc 8938 3abd a10d ddbc
000001c0: 1356 e9bc cad1 76bc 782d 9d3d 8b2b 6d3d
000001d0: 1598 823c d87f 7bbc 764d f6bb b019 0fbd
000001e0: 4327 c0bc fe89 1cbc 6fd4 8fb8 4af2 003d
000001f0: 2c3f 8dbb d7aa 16bd bee4 34bd 4542 58bd
00000200: 4b53 92bd c538 e5bb 529c 28bd b558 a23c
00000210: e78d 793b e163 3e3a 57ef 5c3d 13d6 5ebb
00000220: 2387 e7bc 854d 02bd 588e 5cbc badc 883b
00000230: 6854 fdbc d225 5abc e463 453b ea6a 16bb
00000240: 4f22 5ebc dc87 8abc 64b0 993a 5b59 1fbd
00000250: 6c76 8abd 4f48 0cbd cc9e 14be e565 f1bd
00000260: 754a 0ebe aaf0 0fbd 6ecf a2bc 7747 b8bc
00000270: 0437 50bd 49f3 d5ba be9d 21bd 18ad 37bd
00000280: f1ad 10bb 31e5 93bd 0a32 7bbd e663 423c
00000290: a7e7 843b 32fb 363d 500a c1bc 87f1 afbb
000002a0: 0e5d f03d 65a7 093e 3e89 fc3c 81b8 0e3d
000002b0: bfa6 dd3c 86a7 c33b 33b4 cb3b 486e c6bc
000002c0: 8ee4 81bc 5134 3bbd 4ef2 ccbd f101 fbbc
000002d0: b3c6 57bd a0d0 95bd 4d3d cdbc c781 a23b
000002e0: cc48 ef3c 1bb7 e0bb d70c 56bc e60b f0bc
000002f0: 3536 af3c 52b7 553c 3936 f83c b9b5 ecbb
00000300: e8f6 d3bc c8a3 93bd a461 d7bc 7205 b4bd
00000310: 1ee7 aebd f38c c6bd c1c8 ccba 94b4 3cbc
00000320: 7212 86bc bd24 003c 2166 c93c f0e8 36bc
00000330: 35af ca3d 0a34 b63d aed6 463d 5086 0dbd
00000340: f5d5 8ebd df95 14bd 81ef 9fbd 8ed7 9fbd
00000350: f57d debc ac7c d0bd 6b3b d9bd c629 aebd
00000360: fb5e 8e3d 5b9c ad3d 113e 883c 6171 9bbc
00000370: 69ff 90bc bb24 fe3c 1e4e 97bc 9686 5abd
00000380: 897b f73c edda 873c ee90 0ebd 69e8 d63c
00000390: 079b 863d 734e 18bc f2ea f23c b060 753d
000003a0: 0e35 d13d a1cf 833d a723 f83c 8f76 9b3d
000003b0: e5b0 6a3d 6baa 0cbd c205 10bd 2cfc 38bb
000003c0: 9dba 07bd a893 e9bb e3de e8bb 25ff 103c
000003d0: 674c 5a3a a4d7 363c c8d7 813c 16be 02bd
000003e0: 79c0 0cbc 4177 31bd 458c 54bd 1e81 c8bc
000003f0: fe40 8c3d 498c 213d dc61 f73c 81a1 6fbb

features.8.bias f4 [96]
-0.15320258 0.02122341 0.061421793 0.045323145 0.026139915 -0.064042866 -0.0009934476 -0.00014086219
0.12357544 0.030353077 0.040024042 -0.045606963 0.06814652 0.13236603 0.019149434 -0.024830922
-0.06917508 0.15523499 -0.1112583 -0.017575357 0.052746255 0.016182654 0.015476636 -0.046059165
0.00297239 0.13434587 0.111886255 0.011556473 -0.0069079446 -0.07864978 -0.0077517712 0.0029834285
-0.1246049 0.04059419 0.061929684 0.027283926 -0.08409334 0.025886744 0.07611054 -0.03917514
0.026561081 -0.011299352 0.017485745 -0.057724733 -0.013757119 -0.113905944 0.04024217 -0.10540787
0.07278769 -0.038886316 0.15594636 0.07385491 0.037069533 -0.0033387851 0.110694274 -0.016970588
0.011370471 0.054739088 -0.0032986568 -0.08249108 0.025729153 -0.06895588 0.0059901145 0.005893781
0.015635785 -0.05844931 -0.03675307 0.026089452 0.058802452 -0.05856302 -0.020304846 0.021766663
-0.019282425 0.0011316519 -0.10252006 -0.041035604 0.048587568 0.049539708 0.085388295 -0.105163
-0.06674111 0.05712126 -0.039313268 0.01929861 0.085942075 -0.021303238 0.07796994 0.035181645
0.11130351 -0.016204212 0.03759512 0.03691058 0.022501558 -0.043278392 -0.011357725 0.10160308
00000000: 23e1 1cbe b7dc ad3c 6b95 7b3d c3a4 393d
00000010: 6023 d63c e828 83bd 9236 82ba 68b4 13b9
00000020: 1f15 fd3d 04a7 f83c 40f0 233d 5ece 3abd
00000030: 6790 8b3d f68a 073e 46df 9c3c 386a cbbc
00000040: aaab 8dbd ecf5 1e3e 64db e3bd 32fa 8fbc
00000050: 750c 583d 7c91 843c b791 7d3c 89a8 3cbd
00000060: 6ecc 423b f791 093e 9f24 e53d 5c57 3d3c
00000070: 0a5c e2bb 2313 a1bd 9202 febb a085 433b
00000080: db30 ffbd 1846 263d fba9 7d3d 8a82 df3c
00000090: 2139 acbd 7010 d43c d8df 9b3d 1d76 20bd
000000a0: a096 d93c eb20 39bc 443e 8f3c c570 6cbd
000000b0: 8a65 61bc 8547 e9bd f9d4 243d 15e0 d7bd
000000c0: b611 953d 4247 1fbd 67b0 1f3e 3e41 973d
000000d0: 39d6 173d 85cf 5abb aeb3 e23d e705 8bbc
000000e0: 364b 3a3c 1836 603d 472e 58bb 15f1 a8bd
000000f0: f2c5 d23c be38 8dbd b948 c43b 9e20 c13b
00000100: 9e16 803c 8b68 6fbd 638a 16bd 8cb9 d53c
00000110: d7da 703d c7df 6fbd 5956 a6bc 0050 b23c
00000120: 2df6 9dbc f053 943a 0af6 d1bd f314 28bd
00000130: c203 473d 26ea 4a3d 0fe0 ae3d b35f d7bd
00000140: 90af 88bd fbf7 693d f306 21bd 1e18 9e3c
00000150: 6602 b03d 2184 aebc b4ae 9f3d a11a 103d
00000160: 18f3 e33d b2be 84bc 57fd 193d 8c2f 173d
00000170: 3055 b83c af44 31bd c015 3abc 4715 d03d

features.9.weight f4 [96]
0.99460894 1.0364994 0.95241106 0.9141948 1.0355514 1.0583533 1.0705985 0.9094035
0.89814675 0.8642869 1.0346168 0.95602894 0.9671162 0.9325631 1.011874 1.0771288
0.8712849 0.90773666 1.0467873 0.8755035 0.895277 0.9332033 0.91956913 0.8600855
0.98338544 0.83959633 0.89883167 0.9401189 0.97750074 0.86918956 0.86679465 1.05391
1.0657256 1.0583262 1.0241703 0.997133 1.0098996 0.89348483 0.92670953 0.9512695
0.8070416 0.82692665 0.84952277 1.0707314 0.9287794 0.91700506 0.75068504 0.9600243
1.1667516 0.9149003 0.94969803 0.8987524 1.0362175 0.9976056 0.9975504 0.9702151
0.94463515 0.8966509 0.9135678 0.93857116 1.0252247 0.9108301 0.90438116 0.93967366
1.0403649 1.1715235 0.98420626 0.91364384 1.016271 0.91497755 1.0322279 0.9811597
0.88114625 0.93291384 0.86175257 0.9648578 1.020614 0.92999554 0.79663676 1.0320019
0.9614802 0.86109126 0.9017789 1.0059797 0.8121517 0.8863714 0.8677328 0.93169665
0.9923344 1.0392656 1.0986699 0.98674184 1.1238981 1.0152684 1.086587 0.9089364
00000000: b19e 7e3f 03ac 843f 36d1 733f ac08 6a3f
00000010: f38c 843f 1f78 873f 5f09 893f abce 683f
00000020: f2ec 653f e841 5d3f 536e 843f 50be 743f
00000030: ed94 773f 75bc 6e3f 1685 813f 5bdf 893f
00000040: 870c 5f3f 6e61 683f 20fd 853f ff20 603f
00000050: e030 653f 69e6 6e3f e268 6b3f 902e 5c3f
00000060: 26bf 7b3f c9ef 563f d519 663f a2ab 703f
00000070: 7d3d 7a3f 3583 5e3f 41e6 5d3f 86e6 863f
00000080: b269 883f 3c77 873f 0318 833f 1c44 7f3f
00000090: 6444 813f 6cbb 643f d63c 6d3f 6686 733f
000000a0: 479a 4e3f 77b1 533f 537a 593f ba0d 893f
000000b0: 7dc4 6d3f d8c0 6a3f e52c 403f 27c4 753f
000000c0: 1e58 953f e836 6a3f 691f 733f a314 663f
000000d0: c6a2 843f 1563 7f3f 775f 7f3f 0460 783f
000000e0: 9cd3 713f ea8a 653f 94df 693f 3346 703f
000000f0: 903a 833f 292c 693f 8685 673f 748e 703f
00000100: ad2a 853f 7bf4 953f f1f4 7b3f 90e4 693f
00000110: 2b15 823f f83b 6a3f 0b20 843f 482d 7b3f
00000120: cd92 613f 71d3 6e3f d19b 5c3f ec00 773f
00000130: 7ba3 823f 3014 6e3f 63f0 4b3f a318 843f
00000140: 9123 763f 7a70 5c3f fbda 663f f1c3 803f
00000150: 2ce9 4f3f 3ce9 623f bd23 5e3f ac83 6e3f
00000160: a109 7e3f a806 853f 37a1 8c3f 1d9b 7c3f
00000170: e5db 8f3f 51f4 813f 4815 8b3f 0eb0 683f

features.9.bias f4 [96]
-0.35051852 -0.32426018 -0.27429888 -0.27371252 -0.26836202 -0.47739795 -0.08593969 -0.38027602
-0.25875306 -0.3166111 -0.21341972 -0.34169784 -0.19695577 -0.35702235 -0.30173558 -0.20889957
-0.2820803 -0.2758665 -0.41181436 -0.22109622 -0.2553122 -0.22334616 -0.17918119 -0.34862998
-0.47435743 -0.27751413 -0.22732478 -0.28212562 -0.4219068 -0.29343843 -0.48165902 -0.32530862
-0.27336606 -0.47024795 -0.25284055 -0.045523193 -0.39839974 -0.35539344 -0.31669897 -0.16457474
-0.3369753 -0.28762385 -0.28723735 -0.1633943 -0.25846592 -0.375149 -0.29735276 -0.47774985
-0.35884133 -0.2488318 -0.16254216 -0.36821255 -0.12467424 -0.12268017 -0.30809432 -0.26306888
-0.2499993 -0.23449232 -0.36036143 -0.37173513 -0.47651663 -0.18392132 -0.26691017 -0.3621197
-0.392104 -0.30870983 -0.35816032 -0.31488213 -0.258343 -0.2722414 -0.410832 -0.3068547
-0.18268739 -0.27646312 -0.31616092 -0.24689326 -0.3275808 -0.25662732 -0.24221613 -0.103122965
-0.36418715 -0.2503435 -0.38183045 -0.3120899 -0.4816634 -0.26448464 -0.28697017 -0.24295107
-0.35840172 -0.28476948 -0.17695375 -0.3049565 -0.33633903 -0.4532659 -0.28264406 -0.4377025
00000000: 2a77 b3be 6e05 a6be e770 8cbe 0c24 8cbe
00000010: bf66 89be 816d f4be 2601 b0bd 8ab3 c2be
00000020: 487b 84be da1a a2be b38a 5abe 05f3 aebe
00000030: c6ae 49be a2cb b6be 167d 9abe c5e9 55be
00000040: d46c 90be 603e 8dbe 55d9 d2be 0c67 62be
00000050: 48b8 82be dbb4 64be 467b 37be a17f b2be
00000060: fade f2be 5516 8ebe d4c7 68be c572 90be
00000070: 2b04 d8be 903d 96be 039c f6be da8e a6be
00000080: a3f6 8bbe 57c4 f0be 5174 81be 8776 3abd
00000090: 0dfb cbbe 21f6 b5be 5e26 a2be 4886 28be
000000a0: 0788 acbe 6f43 93be c610 93be d650 27be
000000b0: a555 84be 8813 c0be 9f3e 98be a19b f4be
000000c0: 0dba b7be c3cd 7ebe 7471 26be 5b86 bcbe
000000d0: 3555 ffbd be3f fbbd 8abe 9dbe f7b0 86be
000000e0: d1ff 7fbe c11e 70be 4b81 b8be 1154 bebe
000000f0: fdf9 f3be df55 3cbe 73a8 88be c167 b9be
00000100: dbc1 c8be 370f 9ebe ca60 b7be 3b38 a1be
00000110: 8945 84be 3a63 8bbe 9258 d2be 0f1c 9dbe
00000120: 6712 3bbe 938c 8dbe d8df a1be 96d1 7cbe
00000130: acb8 a7be a864 83be 8107 78be 2232 d3bd
00000140: bd76 babe 062d 80be 487f c3be 3fca 9fbe
00000150: 969c f6be 886a 87be c1ed 92be 2ac8 78be
00000160: 6e80 b7be 4ecd 91be 5d33 35be 4223 9cbe
00000170: a134 acbe 7812 e8be b9b6 90be 8b1a e0be

features.9.running_mean f4 [96]
-0.43026397 -0.8370752 0.30467418 -0.12432006 0.27902862 -0.05210685 -1.5739378 -1.1824734
0.9993979 -2.549542 -1.0075055 -0.5847322 1.661389 -1.4311523 -0.24213642 -0.7833587
-0.9220031 -1.6173124 -1.6674054 -1.5376278 -1.9139705 1.5281465 2.1305406 -3.7641888
-0.8340976 -2.2150483 -2.621952 -0.5134847 -1.0678787 -1.0193849 0.63100535 -1.1621417
-0.19922477 -1.0115962 -0.45409095 -0.6394083 -0.48320138 -4.1660194 -1.9432582 -3.082116
-0.6706128 -2.6114266 -1.6720556 -1.5243369 -0.33464092 0.53803504 -2.7568414 -0.6908046
-0.8306047 3.8817441 -1.0350367 -0.07636452 -1.1600872 0.1189193 1.9714712 -0.41124335
1.3594358 -1.6004261 -0.16030635 -2.214444 -0.18274927 1.023424 0.8866991 0.93294305
-0.41658852 -0.9345381 -1.1807327 -0.4266655 0.17486319 -0.8625145 1.0045509 -0.99595225
-2.36405 -1.5399625 -1.6476704 1.5163283 0.5505525 -2.475114 -2.3303242 -1.2179459
0.21992047 -0.7538451 -1.4061925 -0.7088731 -0.5594356 -0.15711358 -0.0016271367 -3.409675
-0.12309163 0.2437859 -1.8452427 2.962315 -0.8360894 -0.32924244 -1.02928 0.6313896
00000000: 8f4b dcbe 8f4a 56bf 41fe 9b3e 849b febd
00000010: d7dc 8e3e fe6d 55bd cb76 c9bf 4a5b 97bf
00000020: 8ad8 7f3f b22b 23c0 f1f5 80bf 02b1 15bf
00000030: 65a8 d43f 0030 b7bf 9cf2 77be 328a 48bf
00000040: 6508 6cbf 1804 cfbf 8a6d d5bf fdd0 c4bf
00000050: fcfc f4bf 4e9a c33f c75a 0840 78e8 70c0
00000060: 6c87 55bf 5ac3 0dc0 10ce 27c0 bc73 03bf
00000070: 40b0 88bf 347b 82bf 9189 213f 0fc1 94bf
00000080: 9401 4cbe fc7b 81bf 9c7e e8be 43b0 23bf
00000090: 2c66 f7be 0850 85c0 afbc f8bf 6341 45c0
000000a0: 48ad 2bbf 9d21 27c0 eb05 d6bf 791d c3bf
000000b0: 0e56 abbe aabc 093f 1770 30c0 92d8 30bf
000000c0: 82a2 54bf 7f6e 7840 157c 84bf 0065 9cbd
000000d0: bd7d 94bf f68b f33d 2b59 fc3f 7d8e d2be
000000e0: fe01 ae3f c3da ccbf 5927 24be 73b9 0dc0
000000f0: a022 3bbe 8fff 823f b6fe 623f 5bd5 6e3f
00000100: 174b d5be e43d 6fbf 4022 97bf e773 dabe
00000110: 560f 333e c0cd 5cbf 2095 803f baf6 7ebf
00000120: 984c 17c0 7e1d c5bf dde6 d2bf 0c17 c23f
00000130: 02f1 0c3f 4568 1ec0 0824 15c0 a7e5 9bbf
00000140: d532 613e fefb 40bf 1efe b3bf b578 35bf
00000150: 2c37 0fbf 62e2 20be a645 d5ba 1d38 5ac0
00000160: 7717 fcbd 03a3 793e ea30 ecbf 9296 3d40
00000170: f409 56bf 7792 a8be 72bf 83bf c0a2 213f

features.9.running_var f4 [96]
3.977704 2.133804 3.9436276 2.117768 2.1290658 3.0151362 4.042376 2.257752
3.3401525 2.2459848 2.1812136 1.5537103 2.87495 1.9239618 1.6290947 2.7435381
2.911073 2.2142296 2.7103684 3.241344 4.08908 3.9823916 3.8544722 3.3451526
2.5625696 5.1254826 6.5827603 4.1563687 2.355834 2.041915 2.138469 3.1130888
2.259358 1.9537084 4.1335573 2.8769207 1.6857544 4.589379 3.1328619 2.9173276
4.2177663 4.337243 2.5338993 3.655365 3.5067892 1.8507707 3.5721455 1.6291064
1.8296738 3.603458 1.8674662 3.0680182 3.7973702 4.522729 4.640153 2.5832226
4.196932 2.8517673 1.6667427 2.271944 1.2833624 4.7908764 3.3117015 2.4536173
2.9395478 2.572556 3.4415996 1.7827946 1.5146668 2.0249853 3.972147 2.9403884
4.9250755 2.3052042 2.9126709 3.2581215 1.3285524 3.1622338 3.4214268 4.088853
2.634963 2.4488604 1.9438927 2.9326897 1.1697927 4.3001227 3.5183582 4.439611
2.4810839 2.929795 2.6808193 3.1923485 3.2240582 1.5767277 1.1536609 1.9987808
00000000: b492 7e40 3f90 0840 6564 7c40 8389 0740
00000010: 9d42 0840 fef7 4040 255b 8140 027f 1040
00000020: 0fc5 5540 37be 0f40 0199 0b40 fbdf c63f
00000030: 2eff 3740 6144 f63f 2d86 d03f 2196 2f40
00000040: 054f 3a40 f0b5 0d40 ad76 2d40 2e72 4f40
00000050: bed9 8240 81df 7e40 acaf 7640 fb16 5640
00000060: 2401 2440 f403 a440 f9a5 d240 f900 8540
00000070: fcc5 1640 bcae 0240 addc 0840 d93c 4740
00000080: 5299 1040 1e13 fa3f 1a46 8440 781f 3840
00000090: cdc6 d73f 31dc 9240 cf80 4840 7fb5 3a40
000000a0: f1f7 8640 b2ca 8a40 682b 2240 80f1 6940
000000b0: 3c6f 6040 0ee6 ec3f 089e 6440 8f86 d03f
000000c0: c032 ea3f 0e9f 6640 2209 ef3f 695a 4440
000000d0: 1d08 7340 32ba 9040 227c 9440 8553 2540
000000e0: 444d 8640 5b83 3640 d357 d53f 8867 1140
000000f0: 3845 a43f dc4e 9940 ebf2 5340 1108 1d40
00000100: 8d21 3c40 c2a4 2440 2b43 5c40 9d32 e43f
00000110: 9ae0 c13f 5c99 0140 a837 7e40 532f 3c40
00000120: 389a 9d40 7788 1340 3369 3a40 1085 5040
00000130: 010e aa3f 0a62 4a40 a8f8 5a40 e2d7 8240
00000140: 3ca3 2840 21ba 1c40 7ad1 f83f 30b1 3b40
00000150: c4bb 953f 9b9a 8940 c82c 6140 4b11 8e40
00000160: 14ca 1e40 c381 3b40 8b92 2b40 704f 4c40
00000170: f856 4e40 37d2 c93f 29ab 933f 0dd8 ff3f

features.12.weight f4 [128, 96, 3, 3]
0.04059191 0.0040030037 0.009761634 0.015994014 0.014598704 -0.0023212396 -0.006390721 0.006638742
-0.03402264 -0.15610045 -0.13258137 -0.16567418 -0.09372061 -0.11475501 -0.07695524 -0.063040785
-0.070749834 -0.04852648 0.007166984 0.059730448 0.045483653 0.016922051 0.040627416 0.057138074
0.011533341 0.017205793 0.061941404 0.013928162 0.02922114 0.034944586 0.02167855 0.03345067
0.045325473 0.015042962 0.06865408 0.01905585 -0.08449564 -0.06783393 -0.06651482 -0.06113888
-0.037326153 -0.014115662 -0.07069655 -0.06743896 -0.042551924 -0.05488186 -0.07496575 -0.099378936
-0.047565468 -0.070214696 -0.066794366 -0.11754267 -0.09415417 -0.054343592 0.03931566 0.013055736
0.05267084 -0.030462872 -0.07731917 -0.050010175 -0.0513369 -0.035969913 -0.033311177 -0.0022925823
-0.02356458 0.016697902 0.029303847 0.040438414 0.01595907 0.049667127 0.038025532 0.059231557
-0.06622339 -0.03735698 -0.058029547 -0.0326923 -0.058926195 -0.05906327 -0.04323487 -0.040206537
-0.046611875 0.05015606 0.021749735 0.007588033 0.05029539 0.012217635 0.047320016 0.052620318
-0.004241941 0.009589802 -0.0010596722 -0.0013861479 0.037595965 0.008880695 -0.0009328328 -0.059084
-0.06993503 -0.046745967 -0.051627386 0.071431965 0.03949138 0.06492099 0.036583357 0.06592193
0.080462284 0.06993618 0.07677635 0.102470994 -0.04817863 -0.04786682 -0.020176342 -0.08447998
-0.066172674 -0.07207973 -0.075744644 -0.052667815 -0.062249318 0.077882275 0.051783618 0.017929273
0.04430742 0.06520578 0.038102657 0.018953063 0.009551691 0.0307619 0.08256153 0.069327794
0.044765104 0.034626096 0.059282288 0.067380086 0.07996817 0.06854513 0.08887997 0.054801457
0.0676856 0.080351725 0.058589872 0.046790227 0.02236163 0.032895636 0.08917487 0.07841569
0.02857732 0.020310262 -0.021218838 -0.005050391 0.023254251 0.0043606884 0.0017359887 -0.013927452
-0.007539116 0.0052320864 0.005569891 -0.036034707 -0.028948555 -0.04550029 -0.020147605 0.0014264088
-0.058232505 0.007657428 -0.05212591 -0.03794002 -0.059569255 -0.05675206 -0.028140597 -0.036409363
-0.101089984 -0.06317019 -0.09220607 0.000972807 -0.028076185 -0.016410882 0.03229519 -0.04176141
-0.002414533 0.014934006 -0.0066441526 0.013678882 0.01591843 -0.025173696 0.010433529 0.024478877
0.00070439925 0.038419057 -0.010534425 0.018396262 0.02425954 -0.00436029 0.034371715 -0.00057437195
0.027941238 -0.022603523 -0.018527845 -0.007191831 0.008159079 -0.025258133 0.006251286 0.061718058
-6.0097736e-05 -0.03670065 -0.017735831 0.00806187 0.004475137 -0.0021488345 -0.015856126 -0.055182226
0.006222022 -0.0052776732 0.0041601257 -0.008895141 -0.003203835 -0.025590867 -0.025062377 -0.004262467
0.07995125 0.05249157 0.046574187 0.06146729 0.07152155 0.024406103 -0.0011391486 0.015868418
0.011065738 0.058934003 0.04887218 0.0654748 0.018974293 0.033856347 0.042852677 0.012624133
0.004126016 0.0023014147 0.009326386 0.05331084 0.049424026 0.05862012 0.066890165 0.044468258
0.01893925 0.036193334 0.016119892 0.03515607 0.06649749 0.048701677 0.05074201 0.067680225
0.06898686 0.08258102 0.050312605 0.051052313 0.021211406 0.021425867 -0.008784752 -0.013524785
00000000: b443 263d a12b 833b 43ef 1f3c e105 833c
00000010: 672f 6f3c f01f 18bb 4169 d1bb ce89 d93b
00000020: 535b 0bbd ccd8 1fbe 69c3 07be 7ea6 29be
00000030: 97f0 bfbd ad04 ebbd b59a 9dbd 871b 81bd
00000040: 4ae5 90bd b4c3 46bd 05d9 ea3b eaa7 743d
00000050: 114d 3a3d 1da0 8a3c ef68 263d 9d09 6a3d
00000060: 57f6 3c3c 2af3 8c3c 45b6 7d3d f232 643c
00000070: 2c61 ef3c 0e22 0f3d 3797 b13c 9203 093d
00000080: 34a7 393d c176 763c 839a 8c3d 041b 9c3c
00000090: 0d0c adbd 84ec 8abd ec38 88bd c36c 7abd
000000a0: 4fe3 18bd 6145 67bc 5ac9 90bd 701d 8abd
000000b0: ed4a 2ebd cdcb 60bd a587 99bd 2f87 cbbd
000000c0: 02d4 42bd b9cc 8fbd 7ccb 88bd 36ba f0bd
000000d0: e7d3 c0bd 6397 5ebd 7509 213d bae7 553c
000000e0: 61bd 573d 468d f9bc 8359 9ebd 78d7 4cbd
000000f0: a446 52bd 3055 13bd 4d71 08bd 263f 16bb
00000100: 820a c1bc 0aca 883c 9f0e f03c c0a2 253d
00000110: 98bc 823c c26f 4b3d a9c0 1b3d ca9c 723d
00000120: 21a0 87bd a203 19bd 64b0 6dbd 5ce8 05bd
00000130: 985c 71bd 54ec 71bd 0c17 31bd 9caf 24bd
00000140: 18ec 3ebd 7170 4d3d 802c b23c 09a5 f83b
00000150: 8a02 4e3d 7a2c 483c a2d2 413d 6788 573d
00000160: fbff 8abb 8b1e 1d3c b3e4 8aba 68af b5ba
00000170: 3afe 193d 5680 113c 5989 74ba 1002 72bd
00000180: 193a 8fbd b378 3fbd 3d77 53bd ec4a 923d
00000190: b7c1 213d 4cf5 843d 6ed8 153d 1402 873d
000001a0: 69c9 a43d b33a 8f3d eb3c 9d3d 50dc d13d
000001b0: f556 45bd 0010 44bd db48 a5bc d703 adbd
000001c0: 8a85 87bd 8a9e 93bd 0220 9bbd 35ba 57bd
000001d0: 24f9 7ebd be80 9f3d 0f1b 543d 69e0 923c
000001e0: b27b 353d 9c8a 853d 8811 1c3d 7443 9b3c
000001f0: b27e 1c3c 6100 fc3c 0516 a93d bbfb 8d3d
00000200: 9d5b 373d 18d4 0d3d fcd1 723d 92fe 893d
00000210: 5ac6 a33d 6461 8c3d b406 b63d 7e77 603d
00000220: bf9e 8a3d 728f a43d effb 6f3d 1ca7 3f3d
00000230: bd2f b73c 93bd 063d 50a1 b63d 6898 a03d
00000240: fc1a ea3c b561 a63c 21d3 adbc c07d a5bb
00000250: b37f be3c 1be4 8e3b 1d8a e33a f82f 64bc
00000260: b00a f7bb ec71 ab3b a283 b63b 2199 13bd
00000270: 8525 edbc 835e 3abd 970c a5bc 56f6 ba3a
00000280: 3585 6ebd 29eb fa3b fa81 55bd ff66 1bbd
00000290: e4fe 73bd d974 68bd 1c87 e6bc fc21 15bd
000002a0: 4408 cfbd 5f5f 81bd 89d6 bcbd f903 7f3a
000002b0: 0700 e6bc 1d70 86bc f647 043d 030e 2bbd
000002c0: 243d 1ebb c3ad 743c 31b7 d9bb 641d 603c
000002d0: 5e67 823c 1139 cebc 64f1 2a3c ed87 c83c
000002e0: 6fa7 383a 4d5d 1d3d 9598 2cbc c2b3 963c
000002f0: f1bb c63c c3e0 8ebb 5bc9 0c3d 7391 16ba
00000300: 06e5 e43c 062b b9bc b5c7 97bc 73a9 ebbb
00000310: a8ad 053c 25ea cebc 96d7 cc3b 13cc 7c3d
00000320: 7411 7cb8 6c53 16bd bc4a 91bc ef15 043c
00000330: 2ca4 923b 76d3 0cbb b5e4 81bc c206 62bd
00000340: 1be2 cb3b 55f0 acbb aa51 883b edbc 11bc
00000350: 6ff7 51bb f0a3 d1bc 9d4f cdbc 2aac 8bbb
00000360: 7bbd a33d 6701 573d 93c4 3e3d 20c5 7b3d
00000370: e479 923d 4fef c73c 7c4f 95ba 7cfe 813c
00000380: 124d 353c c864 713d 322e 483d a717 863d
00000390: fa6f 9b3c f4ac 0a3d 4a86 2f3d 74d5 4e3c
000003a0: 8833 873b 55d3 163b b3cd 183c 785c 5a3d
000003b0: d970 4a3d a71b 703d b6fd 883d 5924 363d
000003c0: 7c26 9b3c 763f 143d dd0d 843c d0ff 0f3d
000003d0: d62f 883d 697b 473d dbd6 4f3d ee9b 8a3d
000003e0: fc48 8d3d 3d20 a93d 9714 4e3d 3b1c 513d
000003f0: 8bc3 ad3c 4d85 af3c eced 0fbc 0f97 5dbc
